tflite_models/gestures/xr_emoji.tflite (tflite, 17828 bytes, 8 tensors)

arith.constant f4 [7, 16]
-0.5968722 -0.65215737 0.36100596 0.22993325 -1.3402112 0.435149 0.4506477 0.22346248
0.9272714 -1.0484712 0.36937693 0.72226584 0.76619774 0.32769272 0.24975125 -0.6149532
-0.8252925 0.43073425 0.6734181 0.66996026 -1.6656749 -0.5800564 0.71982276 -1.2152522
-0.78394306 -1.673917 0.41256255 -1.9371747 -0.48522517 -1.3586622 -2.2473345 -1.7287167
-1.4847296 0.60339326 -1.329476 -1.2131553 -1.6584712 0.6672505 -0.8780148 -0.16891079
0.18927634 -1.4122674 0.5437728 -0.8387902 -0.27401042 0.014844877 -0.8502522 0.50238234
-1.2176265 0.13059099 0.39770877 -0.05226894 0.527673 -2.2625802 -0.61618555 -1.3253499
0.2432458 0.69106966 0.10787361 0.32078463 -0.9116923 -1.1133691 0.5611854 -1.2998525
0.9101274 -2.561521 0.5201264 0.6058477 0.43527138 -2.7130594 0.6575777 -1.5018493
-1.6141385 0.58353263 -1.8425113 0.13095626 0.7588173 -2.1945832 0.31279558 -1.7704988
0.36289182 -2.1575108 -0.5371252 -0.9185544 0.53781855 -1.1992562 -0.962144 0.6397065
-1.3065583 0.71522576 -1.4585716 0.3977221 -0.71010536 0.31034437 0.42136854 0.4337292
-1.0083733 0.39790568 -1.126473 -1.3411065 -1.269381 0.6042986 -0.95052314 0.57143694
-0.2677588 -0.72780424 0.46384996 -0.9398144 0.5964225 0.43655914 -0.8242786 0.5117646
00000000: 9ecc 18bf c9f3 26bf c6d5 b83e 9f73 6b3e
00000010: 0a8c abbf dacb de3e 4cbb e63e 59d3 643e
00000020: a961 6d3f 4e34 86bf f91e bd3e 6ae6 383f
00000030: 8925 443f 57c7 a73e cbbe 7f3e 936d 1dbf
00000040: 5f46 53bf 3389 dc3e 2165 2c3f 8482 2b3f
00000050: d634 d5bf 947e 14bf 4e46 383f 628d 9bbf
00000060: 7eb0 48bf ea42 d6bf 663b d33e 57f5 f7bf
00000070: 6f6f f8be a5e8 adbf 54d4 0fc0 9746 ddbf
00000080: 9f0b bebf fb77 1a3f 452c aabf ac48 9bbf
00000090: c948 d4bf eed0 2a3f 94c5 60bf f3f6 2cbe
000000a0: a8d1 413e 2ec5 b4bf b234 0b3f f4ba 56bf
000000b0: 184b 8cbe ed37 733c 21aa 59bf 219c 003f
000000c0: 2fdb 9bbf a5b9 053e 7ca0 cb3e f517 56bd
000000d0: 9415 073f 1dce 10c0 56be 1dbf 11a5 a9bf
000000e0: 6d15 793e f1e9 303f d7ec dc3d e23d a43e
000000f0: ab64 69bf e182 8ebf d9a9 0f3f 9161 a6bf
00000100: 1cfe 683f f6ef 23c0 0127 053f d618 1b3f
00000110: e4db de3e c4a2 2dc0 0357 283f 993c c0bf
00000120: 179c cebf 6562 153f 69d7 ebbf 6619 063e
00000130: da41 423f 0d74 0cc0 be26 a03e b49f e2bf
00000140: f5cc b93e a814 0ac0 0981 09bf 6226 6bbf
00000150: 7aae 093f 3a81 99bf 124f 76bf cec3 233f
00000160: 4d3d a7bf 0919 373f 79b2 babf 3ba2 cb3e
00000170: 77c9 35bf 75e5 9e3e 9ebd d73e c111 de3e
00000180: 6012 81bf 4bba cb3e 4430 90bf 61a9 abbf
00000190: 147b a2bf 50b3 1a3f 7c55 73bf b149 123f
000001a0: ae17 89be 6151 3abf be7d ed3e ad97 70bf
000001b0: 25af 183f ae84 df3e ec03 53bf 0103 033f

arith.constant1 f4 [16, 32]
-0.90648866 0.4130355 0.16260004 0.34390187 -0.11452421 -0.74831885 -0.7882967 -0.091227554
-0.1494317 1.1091053 0.17560565 -0.9491982 0.2813236 -0.6824094 -0.024229495 -0.93590724
0.3768538 0.10960939 -0.95022905 -1.6372153 -0.80802214 -0.3005812 -0.3535161 0.44634825
0.100727014 -0.39218834 0.46823317 0.39563528 0.6282078 -0.512172 0.013608074 0.4698669
0.23286086 -0.93973094 -0.4335474 -0.5063742 -1.1883792 0.3822161 -0.46769834 1.0976593
-0.32564488 -0.0068751024 0.26236382 0.29978344 -0.5231107 0.056573275 -1.2170848 0.26044795
-0.07818734 -0.57946473 -0.065987654 0.0584489 0.24670696 0.9309608 -1.1416941 1.4589742
-0.06901435 -0.114111945 -0.48575455 0.04750675 -0.36094373 0.11261545 -1.2225295 -0.7405307
-0.13064939 0.2879874 -0.12664598 -0.07760188 0.5076705 0.28841156 -0.23095828 -0.13461238
0.27529156 -0.9831997 1.4960182 -0.24775822 -0.20967408 -0.37142825 0.17833005 -0.062569834
-0.37517473 1.2299942 0.23195297 -0.031516083 -0.15272124 -0.34078017 0.6125063 0.3938193
-0.38367248 -0.18161522 -0.25577113 1.6003128 1.228003 -0.33138004 0.1960399 0.25360832
0.107266344 0.42015398 0.17413193 0.21915595 -0.3613383 -0.05763765 -0.24699514 0.0547426
0.52729255 0.010925528 0.9776118 -0.52785873 0.08745955 -0.423578 -0.22447696 0.023463687
-0.12447344 0.70747733 -0.09532934 -0.04914113 -0.046112455 -0.1940377 -0.20936765 0.9876484
-0.2521296 -0.055654235 -0.02591602 1.34753 1.3514951 -0.8950921 -0.27189067 0.57738554
-1.4582539 0.03928175 0.7874733 0.94538015 0.21073696 0.16138689 -0.4765268 -0.24305496
-0.5193203 0.3688832 0.3288472 -0.30126357 0.8721479 -0.7426799 0.16456667 -1.2070848
1.2805786 -0.06274308 -0.14210701 -0.30363756 -0.5943118 0.18543799 0.33655393 0.43570602
0.106112294 -0.11361084 1.1752434 0.13191222 -0.38161552 0.107862905 0.2139452 -0.25925308
0.7647403 0.5033799 -1.3032529 -1.3005186 0.17291795 0.003668531 0.53912395 0.058918267
0.82030874 -0.45089835 -0.8943301 1.0255377 -1.0995533 1.3621682 -0.07281309 0.65600616
-0.7560489 -0.226359 0.13340604 0.4361931 0.24976555 -0.09921139 0.18177822 -0.82925564
-0.11442975 0.38842812 -1.5180391 -0.65151525 -0.31002516 0.41325244 -0.111526676 0.1033277
0.20131892 0.4844306 0.009383014 0.16405591 0.058462873 -0.47315684 0.6273116 -0.003461075
0.80040085 0.025460755 0.7162985 -0.21784337 -0.07102419 -0.14057146 -0.068938226 0.112206645
-0.16013321 0.43679005 0.05229823 -0.007473191 -0.06443043 -0.0013954593 -0.25366673 0.45181093
-0.08822858 0.15460637 0.030283391 0.6487297 1.5924968 -0.81353235 -0.14307235 1.029876
0.16656867 -0.23854625 -0.021252379 -0.40325853 -0.17809124 -0.7489455 0.4877736 -0.2391496
0.44353887 0.9726151 -0.5260271 -0.029154126 -0.43950605 0.27140477 0.2210568 -0.011069719
0.10018893 0.038596172 -0.44756252 -0.081166 0.23714058 -0.57752204 -0.04591533 -0.6859698
1.2295594 0.9575256 -0.113013126 0.15721068 0.4384255 0.2564617 0.21598311 -0.0900901
00000000: a40f 68bf 6479 d33e a080 263e e813 b03e
00000010: ab8b eabd d391 3fbf d0cd 49bf 83d5 babd
00000020: a004 19be 2af7 8d3f f8d1 333e a7fe 72bf
00000030: a609 903e 62b2 2ebf ef7c c6bc 9e97 6fbf
00000040: fbf2 c03e e37a e03d 3642 73bf 4590 d1bf
00000050: 8ada 4ebf c7e5 99be 1000 b5be c287 e43e
00000060: f749 ce3d e9cc c8be 42bc ef3e b590 ca3e
00000070: 3ad2 203f b41d 03bf 66f4 5e3c 6592 f03e
00000080: 1473 6e3e 3592 70bf edf9 ddbe bda1 01bf
00000090: cf1c 98bf d4b1 c33e 2876 efbe 1a80 8c3f
000000a0: edba a6be 8a48 e1bb 8d54 863e 377d 993e
000000b0: 95ea 05bf 61b9 673d 6fc9 9bbf 6f59 853e
000000c0: af20 a0bd cd57 14bf 8924 87bd 1d68 6f3d
000000d0: c0a0 7c3e 7253 6e3f 0823 92bf abbf ba3f
000000e0: 6557 8dbd 86b3 e9bd d2b4 f8be 7096 423d
000000f0: 9ecd b8be eea2 e63d d97b 9cbf 6c93 3dbf
00000100: f4c8 05be 1673 933e 7caf 01be bced 9ebd
00000110: b2f6 013f aeaa 933e 5480 6cbe d4d7 09be
00000120: 04f3 8c3e fab2 7bbf 867d bf3f 55b4 7dbe
00000130: cdb4 56be d82b bebe 279c 363e 9d24 80bd
00000140: e716 c0be 7370 9d3f 1485 6d3e 0217 01bd
00000150: f562 1cbe bd7a aebe 36cd 1c3f afa2 c93e
00000160: b870 c4be 57f9 39be 6ff4 82be 0dd7 cc3f
00000170: 342f 9d3f a5aa a9be afbe 483e f3d8 813e
00000180: 75ae db3d 6c1e d73e a44f 323e 6b6a 603e
00000190: 5501 b9be 7515 6cbd 4bec 7cbe c739 603d
000001a0: a5fc 063f fc00 333c c444 7a3f c021 07bf
000001b0: fe1d b33d 37df d8be 4add 65be eb36 c03c
000001c0: eeeb febd 3c1d 353f 073c c3bd 3648 49bd
000001d0: 6ae0 3cbd d2b1 46be 7964 56be 87d6 7c3f
000001e0: 2217 81be b2f5 63bd d54d d4bc dd7b ac3f
000001f0: cbfd ac3f c224 65bf 4135 8bbe 8acf 133f
00000200: 10a8 babf e6e5 203d da97 493f 6f04 723f
00000210: 6ecb 573e 9b42 253e 52fb f3be 66e3 78be
00000220: 2df2 04bf 42de bc3e a95e a83e 383f 9abe
00000230: 1645 5f3f 4520 3ebf 2a84 283e c181 9abf
00000240: 00ea a33f 727f 80bd 8084 11be 6276 9bbe
00000250: d124 18bf 75e3 3d3e cc50 ac3e dc14 df3e
00000260: 6751 d93d cdac e8bd 606e 963f ff13 073e
00000270: 1c63 c3be 3ae7 dc3d 7314 5b3e d2bc 84be
00000280: 05c6 433f 81dd 003f fed0 a6bf 6577 a6bf
00000290: 6711 313e bd6b 703b 0704 0a3f 4854 713d
000002a0: c1ff 513f 26dc e6be d1f2 64bf d244 833f
000002b0: 2abe 8cbf 875b ae3f 081f 95bd 05f0 273f
000002c0: 6c8c 41bf a7ca 67be 989b 083e b454 df3e
000002d0: 8ac2 7f3e 572f cbbd 1224 3a3e 194a 54bf
000002e0: 255a eabd 0de0 c63e 1b4f c2bf b4c9 26bf
000002f0: 9ebb 9ebe d395 d33e 1968 e4bd 799d d33d
00000300: 8c26 4e3e 4a07 f83e 37bb 193c 46fe 273e
00000310: c476 6f3d 9d41 f2be 7e97 203f 34d3 62bb
00000320: 12e7 4c3f 1393 d03c 575f 373f 5512 5fbe
00000330: 2175 91bd f7f1 0fbe 7c2f 8dbd 99cc e53d
00000340: f6f9 23be f2a2 df3e ab36 563d abe1 f4bb
00000350: 1af4 83bd d8e7 b6ba 9be0 81be c353 e73e
00000360: 30b1 b4bd 2251 1e3e e014 f83c 2613 263f
00000370: efd6 cb3f a843 50bf 8f81 12be fad2 833f
00000380: fa90 2a3e 7845 74be 7819 aebc e777 cebe
00000390: 8d5d 36be e4ba 3fbf 76bd f93e a2e3 74be
000003a0: 8717 e33e 4efd 783f b6a9 06bf a2d4 eebc
000003b0: f006 e1be 91f5 8a3e b75c 623e c45d 35bc
000003c0: db2f cd3d 0517 1e3d ea26 e5be 5c3a a6bd
000003d0: fbd4 723e 7cd8 13bf b711 3cbd b89b 2fbf
000003e0: 3462 9d3f 6620 753f 6d73 e7bd d6fb 203e
000003f0: 4f79 e03e f34e 833e ad2a 5d3e 2981 b8bd

arith.constant2 f4 [32, 64]
-0.08642985 0.45290148 0.19973195 -0.058922533 0.24241577 -1.0489758 0.008627067 -0.13797711
-0.117271066 0.40250024 -0.2181635 -0.20181629 0.0068105976 -0.15401478 0.6377186 -0.036189314
0.94354284 0.048960853 0.0355724 0.010469271 -0.11642525 0.56357676 0.14860672 0.12845734
0.3710587 -0.09342408 0.79804087 0.16735405 0.38485083 -0.023672393 0.02528241 -0.12960516
-0.19742832 0.05367899 -0.12922522 -0.09113105 0.03883026 -0.02550591 0.20260322 -0.04089562
-0.072590165 -0.22983974 0.21681783 0.4397568 0.13530004 0.8085284 0.0313496 0.7202561
-0.16935354 0.039824307 -0.04564053 -0.057446204 -0.18242894 0.05436946 0.42884412 0.55309904
-0.30064988 -0.2085377 0.006215674 -0.16525505 0.22390875 0.27657062 0.15402982 0.0488301
-0.73894686 0.8166474 -0.010028303 -0.06914405 -0.06509694 -0.36439234 0.20890872 0.032759324
-0.82156706 0.32429987 0.08282493 0.050545838 0.3388051 -0.100338586 0.27422187 0.029423788
-0.22499247 0.2023827 0.0718588 -0.09157491 -0.16781683 -0.11865165 -0.19708037 -0.0596114
0.55431235 0.032001078 -0.19672881 -0.109615564 -0.32273862 -0.7162719 0.05301791 0.52742136
0.46819812 0.07250005 -0.78402835 0.12380552 -0.078471415 -0.094146475 -0.012900591 0.46604258
-0.49578372 -0.2119348 0.097868815 0.21908282 -0.124566786 0.109256424 0.22173518 0.30553266
-0.10513902 -0.052574158 0.14820439 0.35534206 0.5287241 -0.537394 0.10477277 0.2234398
0.41135913 0.114346564 -0.034031965 0.034911845 0.5297995 -0.32774854 -0.11480495 -0.05341203
-0.005990302 -0.40301853 -0.18120056 -0.79404116 0.19217432 0.9208563 -0.60034484 0.38444427
0.1894833 -0.6556486 0.2613892 0.6070198 0.18103813 0.041384965 -0.37473762 0.22623639
-1.1815022 -0.20568047 -0.72789526 0.09203308 0.19240193 -0.12922372 -0.09098649 -0.1520263
0.13766214 0.22436309 -0.5566846 -0.20014268 0.0907349 -0.03301481 0.13491297 0.14880012
0.20207843 -0.059477568 0.37749735 0.16561286 0.09569147 -0.74009264 0.17275953 -0.04128118
0.021686519 0.12787598 -0.051181752 -0.08345892 -0.18039475 -0.5183663 0.09848046 -0.044937603
-0.16701329 -0.00040268898 0.17084765 0.34139833 0.11663636 0.008884818 -0.7902423 -0.33317584
0.052924033 0.06375897 -0.21251751 -0.050763935 0.06344348 -0.15333045 0.24943185 -1.0685459
-1.1312661 0.18147197 -0.13632989 -0.70847744 0.25085136 0.40285638 -0.63942045 0.21171655
-0.47402206 -0.40017954 0.17975773 0.5734637 -0.49186447 0.118074216 -0.3129748 0.2207591
-1.3270563 -0.17611201 -1.0545337 0.25598523 0.103735335 0.0075131417 0.18718421 -0.24688882
0.14575954 0.22272563 -0.39783174 0.038794875 -0.52263373 0.07729822 0.11556257 0.28209057
0.17129986 -0.21858585 0.12789103 0.09578385 0.26737884 -1.1312671 0.10766798 0.028595619
-0.16563566 -0.11010921 -0.20698416 -0.60348207 -0.5373331 -0.6495298 -0.10595298 -0.10715242
0.013211131 -0.22987819 -0.0069402456 0.24193537 0.063453525 0.08441467 -1.1585824 -0.026169376
0.3501973 -0.050215423 -0.19063358 -0.6323455 0.13042939 -0.3278123 0.09954155 -0.7978054
00000000: 2202 b1bd b4e2 e73e 8886 4c3e c158 71bd
00000010: d73b 783e d744 86bf 8b58 0d3c df49 0dbe
00000020: d02b f0bd 8314 ce3e 4166 5fbe eea8 4ebe
00000030: 6f2b df3b 0db6 1dbe 8741 233f 3f3b 14bd
00000040: 068c 713f 2d8b 483d 5db4 113d 4e87 2b3c
00000050: 5d70 eebd 9146 103f 5c2c 183e 528a 033e
00000060: 68fb bd3e 2055 bfbd 684c 4c3f dc5e 2b3e
00000070: 2b0b c53e 9bec c1bc 0f1d cf3c 37b7 04be
00000080: a62a 4abe 80de 5b3d 9e53 04be eaa2 babd
00000090: 7b0c 1f3d c5f1 d0bc 3877 4f3e 2a82 27bd
000000a0: 27aa 94bd 1c5b 6bbe 7e05 5e3e ce27 e13e
000000b0: 188c 0a3e b8fb 4e3f 7068 003d b462 383f
000000c0: 046b 2dbe d01e 233d 90f1 3abd b64c 6bbd
000000d0: a7ce 3abe 83b2 5e3d 7591 db3e e697 0d3f
000000e0: c8ee 99be e88a 55be daac cb3b 9f38 29be
000000f0: 5648 653e aa9a 8d3e feb9 1d3e 1202 483d
00000100: 9f2b 3dbf ce0f 513f c04d 24bc 659b 8dbd
00000110: 8b51 85bd a291 babe 2bec 553e a42e 063d
00000120: 3852 52bf a20a a63e 1ea0 a93d 2709 4f3d
00000130: dd77 ad3e 517e cdbd cf66 8c3e 280a f13c
00000140: 6d64 66be 693d 4f3e b52a 933d a08b bbbd
00000150: 2dd8 2bbe a3ff f2bd 70cf 49be 152b 74bd
00000160: 6ae7 0d3f 9013 033d 4773 49be 207e e0bd
00000170: ff3d a5be 985d 37bf 4f29 593d 1605 073f
00000180: aab7 ef3e e87a 943d 15b6 48bf c08d fd3d
00000190: 9fb5 a0bd decf c0bd 005d 53bc 229d ee3e
000001a0: 5dd7 fdbe 7005 59be 726f c83d 3f57 603e
000001b0: df1c ffbd d5c1 df3d 8c0e 633e c76e 9c3e
000001c0: 2053 d7bd 0058 57bd e4c2 173e 65ef b53e
000001d0: 765a 073f a792 09bf 1b93 d63d 67cd 643e
000001e0: aa9d d23e 882e ea3d 1a65 0bbd b9ff 0e3d
000001f0: f1a0 073f a8ce a7be dc1e ebbd 93c6 5abd
00000200: 4c4a c4bb 7258 cebe a48c 39be 4846 4bbf
00000210: 58c9 443e 3dbd 6b3f 33b0 19bf e1d5 c43e
00000220: e907 423e 96d8 27bf ced4 853e a665 1b3f
00000230: 0f62 393e 4883 293d 9cdd bfbe 83aa 673e
00000240: 773b 97bf e79d 52be 5857 3abf d77b bc3d
00000250: 0305 453e 3953 04be 2057 babd c8ac 1bbe
00000260: 4ef7 0c3e 70bf 653e e282 0ebf 34f2 4cbe
00000270: 38d3 b93d 8a3a 07bd a026 0a3e 0f5f 183e
00000280: a6ed 4e3e c09e 73bd 5547 c13e 6b96 293e
00000290: e4f9 c33d b676 3dbf e0e7 303e 7416 29bd
000002a0: eda7 b13c ecf1 023e f5a3 51bd 83ec aabd
000002b0: 67b9 38be a7b3 04bf 20b0 c93d 7e10 38bd
000002c0: 8805 2bbe 0020 d3b9 b0f2 2e3e c3cb ae3e
000002d0: 0bdf ee3d a191 113c 524d 4abf 0696 aabe
000002e0: dfc6 583d 1094 823d 319e 59be d8ed 4fbd
000002f0: a8ee 813d a802 1dbe 106b 7f3e 1dc6 88bf
00000300: 54cd 90bf cad3 393e 109a 0bbe c75e 35bf
00000310: 976f 803e 3143 ce3e 0fb1 23bf 39cc 583e
00000320: 05b3 f2be 55e4 ccbe 6912 383e 84ce 123f
00000330: a9d5 fbbe e5d0 f13d 3c3e a0be ac0e 623e
00000340: fbdc a9bf b556 34be f6fa 86bf 7f10 833e
00000350: 3173 d43d cd30 f63b 38ad 3f3e 6cd0 7cbe
00000360: fd41 153e 3012 643e 9ab0 cbbe 60e7 1e3d
00000370: 53cb 05bf 874e 9e3d 12ac ec3d 2d6e 903e
00000380: 3b69 2f3e f8d4 5fbe def5 023e 532a c43d
00000390: e1e5 883e 5ccd 90bf 0881 dc3d 5c41 ea3c
000003a0: 659c 29be f080 e1bd a8f3 53be cd7d 1abf
000003b0: a98e 09bf 9647 26bf e0fd d8bd ba72 dbbd
000003c0: 8073 583c 3065 6bbe 006b e3bb e8bd 773e
000003d0: ecf3 813d 99e1 ac3d 6e4c 94bf 2961 d6bc
000003e0: 0f4d b33e b0ae 4dbd 7335 43be 65e1 21bf
000003f0: 488f 053e 04d7 a7be 71dc cb3d fa3c 4cbf

arith.constant3 f4 [64, 14]
-0.26440728 -0.2661291 -0.08612549 -0.17358683 0.080506384 -0.117070474 -0.17792636 -0.015533546
-0.17121033 -0.009913674 0.30712444 0.25640407 0.20946275 0.31459183 -0.08184313 -0.36279693
-0.34047756 -0.122149885 0.3587146 0.18594445 0.2674296 0.26923817 0.33195308 -0.26588196
-0.12441622 -0.19247924 0.049623705 -0.0494769 0.11252934 -0.22874269 -0.17211837 -0.2021048
-0.13655248 -0.037057087 0.20783484 0.15644538 -0.12576544 0.24305627 0.23640314 -0.14823982
0.13383228 -0.25764525 0.36639458 -0.09871031 0.1170824 -0.37810367 -0.051856175 -0.23666619
-0.15700465 0.094689004 0.15515926 0.009208661 -0.12777406 -0.07231847 0.06941861 0.28278992
0.25919345 0.2973492 -0.10855061 0.22377284 0.014193732 -0.45961455 -0.22995289 0.058099262
-0.09506894 0.2948802 0.06924258 -0.12017424 -0.3426445 -0.28442836 -0.30238658 -0.26977178
0.3208708 0.41108146 -0.055951715 0.1413688 -0.106332585 0.26843712 -0.33509335 -0.14869468
-0.23136695 0.20720297 0.29761687 -0.16191167 -0.1905183 -0.23766291 0.26128918 -0.2211677
-0.059952457 0.00446609 0.3217066 -0.06074854 0.41327035 0.023459628 -0.03393681 0.10379842
-0.18143757 0.008262026 -0.018557549 0.14099324 -0.10061699 0.36964586 -0.034492116 -0.08554009
0.3116183 -0.090490304 0.06853976 0.0380679 -0.20223606 0.014305223 -0.22643119 -0.022861242
-0.32326493 0.3248263 0.07986712 0.16709167 -0.2836298 -0.04051758 -0.23739505 -0.15559377
-0.040611766 -0.112454176 0.012877442 0.4390219 0.21527664 0.038003385 0.08196019 -0.18904813
-0.1984234 -0.2249462 -0.23829013 0.38798708 0.23524094 0.18852518 -0.0092512565 0.17626342
0.024117205 0.2890531 -0.24806353 -0.058850694 -0.44464833 0.0542725 -0.18427056 -0.07741085
0.2576293 0.23254919 -0.02127023 -0.002108192 -0.3211542 -0.1353719 0.029115468 -0.0040308447
0.28114313 0.20273387 -0.17849462 -0.14099105 0.13623255 0.40273947 -0.22161894 0.33340934
0.02906917 0.060321786 -0.27812588 -0.16463913 0.096174516 -0.2989112 0.18167835 -0.08947391
0.013025041 -0.18563251 -0.22945976 -0.012704284 -0.04407155 -0.2540972 -0.20470592 0.0858103
-0.19390734 -0.076979876 0.08453319 0.45825756 0.46237788 0.10271758 -0.20067662 -0.17676154
-0.18106714 -0.100036874 0.04549515 -0.07878341 0.118726045 -0.11232556 -0.11777077 -0.033090908
0.08819299 0.21740365 0.035615455 0.078460686 0.35971454 -0.3184142 -0.4226967 -0.06277738
0.16993788 -0.15874983 0.22552206 0.2386879 0.2851235 -0.035412207 -0.06607881 0.022119831
-0.20191908 0.06581046 -0.13962144 0.16119063 0.14176439 0.24558891 0.22385357 -0.44420722
-0.27516305 0.006619112 -0.059238113 0.10277699 0.049660202 0.18837005 0.13679595 -0.38120863
0.44639733 0.20227154 -0.0054741856 -0.017338447 -0.31978288 -0.01634095 0.28235146 -0.24837562
-0.28304648 -0.1633623 -0.056994416 0.12776494 0.015223391 0.13168898 -0.23460223 -0.15771702
-0.028269663 0.11081749 -0.14839177 0.042587526 0.11212229 0.052170787 0.07177113 0.251915
0.122085564 -0.18261112 -0.16709004 -0.012865209 0.43198285 -0.031153204 -0.26168403 -0.30005983
00000000: 6460 87be 1342 88be 9062 b0bd bfc0 31be
00000010: 88e0 a43d a5c2 efbd 5432 36be 6a80 7ebc
00000020: c351 2fbe f66c 22bc 6a3f 9d3e 6547 833e
00000030: 677d 563e 2e12 a13e 5f9d a7bd 85c0 b9be
00000040: 1353 aebe b829 fabd 71a9 b73e 3968 3e3e
00000050: 88ec 883e 96d9 893e c1f5 a93e ae21 88be
00000060: eecd febd 4719 45be 3a42 4b3d 4aa8 4abd
00000070: c875 e63d 863b 6abe cc3f 30be 90f4 4ebe
00000080: 6ad4 0bbe 2cc9 17bd a8d2 543e 3833 203e
00000090: a8c8 00be bee3 783e aa13 723e 2ecc 17be
000000a0: 540b 093e 14ea 83be 1298 bb3e a228 cabd
000000b0: e6c8 ef3d ce96 c1be 2467 54bd 9f58 72be
000000c0: d4c5 20be 4fec c13d 12e2 1e3e ecdf 163c
000000d0: 34d7 02be b51b 94bd 582b 8e3d d7c9 903e
000000e0: 01b5 843e 283e 983e c84f debd b524 653e
000000f0: d48c 683c 9952 ebbe c578 6bbe 7ef9 6d3d
00000100: 81b3 c2bd 8afa 963e 0ecf 8d3d e91d f6bd
00000110: 1a6f afbe 98a0 91be 6ad2 9abe 871f 8abe
00000120: 2d49 a43e 4579 d23e a02d 65bd fcc2 103e
00000130: e6c4 d9bd 9770 893e 5b91 abbe 6b43 18be
00000140: 75eb 6cbe 042d 543e 3d61 983e 2ccc 25be
00000150: 3b17 43be e85d 73be b2c7 853e c979 62be
00000160: b590 75bd 4758 923b bab6 a43e 76d3 78bd
00000170: 2c98 d33e 682e c03c 5301 0bbd 4494 d43d
00000180: c5ca 39be 735d 073c 0006 98bc 8860 103e
00000190: 4810 cebd 3942 bd3e 9b47 0dbd a52f afbd
000001a0: 6f8c 9f3e fb52 b9bd 935e 8c3d 16ed 1b3d
000001b0: f816 4fbe 7460 6a3c 94dd 67be 8047 bbbc
000001c0: fb82 a5be a24f a63e 5f91 a33d 141a 2b3e
000001d0: ed37 91be c3f5 25bd b017 73be f953 1fbe
000001e0: 8658 26bd 604e e6bd e8fb 523c 7ac7 e03e
000001f0: 7b71 5c3e 70a9 1b3d beda a73d d595 41be
00000200: 812f 4bbe 4c58 66be 5402 74be 3ea6 c63e
00000210: 00e3 703e bf0c 413e 9592 17bc 667e 343e
00000220: 7291 c53c c5fe 933e 5e04 7ebe 6d0d 71bd
00000230: f2a8 e3be d74c 5e3d 6cb1 3cbe 9489 9ebd
00000240: fde7 833e 6021 6e3e e83e aebc 9829 0abb
00000250: 536e a4be ee9e 0abe 9083 ee3c 2d15 84bb
00000260: fef1 8f3e 7899 4f3e 4bc7 36be f55f 10be
00000270: 8c80 0b3e de33 ce3e 13f0 62be a1b4 aa3e
00000280: 7822 ee3c fa13 773d 8466 8ebe 2997 28be
00000290: 25f7 c43d e40a 99be e409 3a3e 193e b7bd
000002a0: fb66 553c 7316 3ebe 80f7 6abe a125 50bc
000002b0: 5f84 34bd 0719 82be 6e9e 51be 50bd af3d
000002c0: a58f 46be a0a7 9dbd bd1f ad3d bca0 ea3e
000002d0: cbbc ec3e 985d d23d 2c7e 4dbe fa00 35be
000002e0: aa69 39be 22e0 ccbd 1f59 3a3d 3259 a1bd
000002f0: a426 f33d f10a e6bd cd31 f1bd 558a 07bd
00000300: 879e b43d 109f 5e3e 83e1 113d ffaf a03d
00000310: 812c b83e 3007 a3be b46b d8be 6d91 80bd
00000320: 3204 2e3e 518f 22be 41ef 663e 9a6a 743e
00000330: b5fb 913e 640c 11bd 5454 87bd a634 b53c
00000340: e0c3 4ebe a2c7 863d ecf8 0ebe 280f 253e
00000350: af2a 113e a97b 7b3e df39 653e 216f e3be
00000360: 2ce2 8cbe 23e5 d83b aaa3 72bd be7c d23d
00000370: 7f68 4b3d 14e4 403e 3d14 0c3e c72d c3be
00000380: 318e e43e 4520 4f3e cc60 b3bb 5c09 8ebc
00000390: 95ba a3be 75dd 85bc 5f90 903e 2e56 7ebe
000003a0: 78eb 90be 7248 27be fa72 69bd d0d4 023e
000003b0: 886b 793c 7ad9 063e 913b 70be 9280 21be
000003c0: c895 e7bc 48f4 e23d 03f4 17be 4270 2e3d
000003d0: 5fa0 e53d 09b1 553d befc 923d 01fb 803e
000003e0: ff07 fa3d 69fe 3abe a719 2bbe 99c8 52bc
000003f0: db2c dd3e 0135 ffbc 73fb 85be 71a1 99be

simple_mlp/dense/bias f4 [64]
0.030954769 0.11684739 0.0 -0.010556939 -0.080582894 -0.025114924 0.008078015 -0.030578433
-0.08617078 -0.08783153 0.06144416 -0.030360546 -0.12641625 -0.027048172 -0.048365265 -0.03319807
-0.10968814 -0.0055545773 -0.013516859 -0.11611979 -0.029736804 -0.08815633 0.0 -0.0009404751
-0.13109763 0.0 -0.234304 0.0 -0.10827184 0.042525977 -0.116904266 0.09533776
-0.055441704 0.0 -0.12607275 -0.13689478 -0.039997604 0.00022126999 0.0 -0.03409645
0.08584589 0.0 -0.052684736 -0.22086155 -0.07918619 -0.1482443 0.0 -0.1667097
0.0 0.0 0.0 0.13708697 -0.043629512 -0.037364207 0.07059968 -0.19998859
0.04660958 0.0 0.007502876 -0.11977675 -0.06288986 0.05004362 -0.16172925 -0.01457022
00000000: db94 fd3c af4d ef3d 0000 0000 03f7 2cbc
00000010: a508 a5bd d0bd cdbc a759 043c 9f7f fabc
00000020: 4e7a b0bd 04e1 b3bd dfac 7b3d aeb6 f8bc
00000030: 4373 01be 2194 ddbc a81a 46bd b3fa 07bd
00000040: 2da4 e0bd 2c03 b6bb d175 5dbc 36d0 edbd
00000050: 999a f3bc 4e8b b4bd 0000 0000 378a 76ba
00000060: 753e 06be 0000 0000 63ed 6fbe 0000 0000
00000070: a0bd ddbd b82f 2e3d 816b efbd 7240 c33d
00000080: d716 63bd 0000 0000 3719 01be 252e 0cbe
00000090: 87d4 23bd b604 6839 0000 0000 b8a8 0bbd
000000a0: f8cf af3d 0000 0000 f3cb 57bd 8829 62be
000000b0: 5f2c a2bd 5bcd 17be 0000 0000 f3b5 2abe
000000c0: 0000 0000 0000 0000 0000 0000 8760 0c3e
000000d0: dcb4 32bd 360b 19bd 9196 903d cfc9 4cbe
000000e0: b0e9 3e3d 0000 0000 b0da f53b 834d f5bd
000000f0: 66cc 80bd 8afa 4c3d 5a9c 25be efb7 6ebc

simple_mlp/dense_1/bias f4 [32]
0.017128998 0.00765082 0.10027501 0.020515153 0.055258743 0.038643237 -0.006762162 0.09204886
0.03189381 -0.08545308 0.09192324 -0.051053274 0.08471693 -0.056060173 0.089426175 0.009799592
0.019298514 0.021217456 0.05550862 0.043384306 -0.028407918 0.061615065 0.09883265 0.08195629
-0.12792926 -0.035382792 0.008144835 0.12331176 0.026800115 -0.070638515 0.08955725 -0.041684695
00000000: 1d52 8c3c bbb3 fa3b fc5c cd3d 650f a83c
00000010: fe56 623d 5f48 1e3d 2095 ddbb 1d84 bc3d
00000020: 15a3 023d 0602 afbd 4042 bc3d 3d1d 51bd
00000030: 1280 ad3d 5a9f 65bd 1225 b73d 788e 203c
00000040: eb17 9e3c 3bd0 ad3c 025d 633d beb3 313d
00000050: b9b7 e8bc 1460 7c3d c668 ca3d b3d8 a73d
00000060: e3ff 02be 8ced 10bd ea71 053c e08a fc3d
00000070: ea8b db3c edaa 90bd cb69 b73d 92bd 2abd

simple_mlp/dense_2/bias f4 [16]
-0.12385941 0.40572697 0.2875182 0.3126283 0.20794572 0.090082124 0.08063479 0.13778058
0.11159138 0.27137733 0.37014157 0.19712213 -0.015953127 0.24746728 0.16697226 0.15740696
00000000: 01aa fdbd 72bb cf3e 9635 933e d110 a03e
00000010: b9ef 543e fa7c b83d da23 a53d 5a16 0d3e
00000020: 058a e43d f8f1 8a3e 3283 bd3e 62da 493e
00000030: 22b0 82bc 1068 7d3e c7fa 2a3e 4a2f 213e

simple_mlp/dense_3/bias f4 [7]
-0.031060366 0.74645734 0.036487468 0.41508898 -1.0339177 -0.26189682 -0.41883156
00000000: 4f72 febc d417 3f3f e273 153d 8b86 d43e
00000010: 6a57 84bf 5717 86be 1771 d6be
